Model: "C3D"
┏━━━━━━━━━━━━━━━━━━━━━━━━━━━━━━━━━━┳━━━━━━━━━━━━━━━━━━━━━━━━━━┳━━━━━━━━━━━━━━━┓
┃ Layer (type)                     ┃ Output Shape             ┃       Param # ┃
┡━━━━━━━━━━━━━━━━━━━━━━━━━━━━━━━━━━╇━━━━━━━━━━━━━━━━━━━━━━━━━━╇━━━━━━━━━━━━━━━┩
│ input_layer (InputLayer)         │ (None, 10, 224, 224, 3)  │             0 │
├──────────────────────────────────┼──────────────────────────┼───────────────┤
│ conv3d (Conv3D)                  │ (None, 10, 224, 224, 64) │         5,248 │
├──────────────────────────────────┼──────────────────────────┼───────────────┤
│ max_pooling3d (MaxPooling3D)     │ (None, 10, 112, 112, 64) │             0 │
├──────────────────────────────────┼──────────────────────────┼───────────────┤
│ conv3d_1 (Conv3D)                │ (None, 10, 112, 112,     │       221,312 │
│                                  │ 128)                     │               │
├──────────────────────────────────┼──────────────────────────┼───────────────┤
│ max_pooling3d_1 (MaxPooling3D)   │ (None, 5, 56, 56, 128)   │             0 │
├──────────────────────────────────┼──────────────────────────┼───────────────┤
│ conv3d_2 (Conv3D)                │ (None, 5, 56, 56, 256)   │       884,992 │
├──────────────────────────────────┼──────────────────────────┼───────────────┤
│ conv3d_3 (Conv3D)                │ (None, 5, 56, 56, 256)   │     1,769,728 │
├──────────────────────────────────┼──────────────────────────┼───────────────┤
│ max_pooling3d_2 (MaxPooling3D)   │ (None, 3, 28, 28, 256)   │             0 │
├──────────────────────────────────┼──────────────────────────┼───────────────┤
│ conv3d_4 (Conv3D)                │ (None, 3, 28, 28, 512)   │     3,539,456 │
├──────────────────────────────────┼──────────────────────────┼───────────────┤
│ conv3d_5 (Conv3D)                │ (None, 3, 28, 28, 512)   │     7,078,400 │
├──────────────────────────────────┼──────────────────────────┼───────────────┤
│ max_pooling3d_3 (MaxPooling3D)   │ (None, 2, 14, 14, 512)   │             0 │
├──────────────────────────────────┼──────────────────────────┼───────────────┤
│ conv3d_6 (Conv3D)                │ (None, 2, 14, 14, 512)   │     7,078,400 │
├──────────────────────────────────┼──────────────────────────┼───────────────┤
│ conv3d_7 (Conv3D)                │ (None, 2, 14, 14, 512)   │     7,078,400 │
├──────────────────────────────────┼──────────────────────────┼───────────────┤
│ max_pooling3d_4 (MaxPooling3D)   │ (None, 1, 7, 7, 512)     │             0 │
├──────────────────────────────────┼──────────────────────────┼───────────────┤
│ flatten (Flatten)                │ (None, 25088)            │             0 │
├──────────────────────────────────┼──────────────────────────┼───────────────┤
│ sequential (Sequential)          │ (None, 1)                │   119,549,953 │
└──────────────────────────────────┴──────────────────────────┴───────────────┘
 Total params: 147,205,889 (561.55 MB)
 Trainable params: 147,205,889 (561.55 MB)
 Non-trainable params: 0 (0.00 B)
